BLAH_BLAH/outputs/x3/best.pth (torch_old, 92240 bytes, 6 tensors)

first_part.0.weight f4 [64, 1, 5, 5]
0.015563366 -0.05811844 -0.049689732 0.009407604 -0.046759583 -0.026973251 -0.02352304 0.16063015
-0.010419768 -0.008510535 0.03299607 -0.017664406 -0.0864501 0.040010896 0.037656363 -0.0061695687
0.030469235 0.081789605 -0.08649044 -0.043217316 -0.00923097 -0.018719409 0.019648591 -0.03716346
0.07384487 0.041270785 -0.029686118 0.009740937 0.05120589 0.061092284 0.049524825 -0.022119325
-0.07031313 -0.028980168 0.045616932 -0.049079668 0.042084906 -0.13758613 -0.010478706 -0.02953208
0.028067643 0.080113605 -0.09238615 0.089430936 0.006891258 -0.009004717 0.0020600993 -0.02771059
-0.034940977 -0.01642192 -0.009880918 0.029263489 -0.040505834 0.050318692 -0.02383236 -0.013928159
-0.0445167 0.061675902 0.016156198 0.07763188 0.037888873 -0.057097703 0.034641903 -0.09377237
0.014761918 -0.008821116 0.10699343 -0.010651707 -0.020564057 -0.031019606 -0.052069727 0.011900194
0.0015383146 -0.020053688 0.0064878254 -0.06680677 0.0068142083 0.08796321 -0.023145782 -0.024966065
-0.0043047657 0.011373974 -0.07973988 0.11193915 -0.06908742 0.019266378 -0.06000413 -0.07920619
0.008700167 0.04866907 -0.00674427 0.105513535 0.0074618873 -0.02538364 -0.033866968 0.00022025546
-0.07041916 0.0473556 0.005170726 0.0711263 0.09468807 -0.03942012 -0.034426335 0.049243957
-0.072684556 -0.034668323 -0.021736002 0.13411647 0.11376586 0.042513397 0.007555896 -0.008146929
-0.060466368 -0.0708909 0.01731749 -0.039655052 0.024802044 0.0059934836 -0.049151734 0.014764699
-0.013279941 0.06678898 -0.07589201 0.043060843 -0.019887256 0.031232582 -0.08575491 -0.026194146
-0.0040729707 -0.08462008 0.033193205 0.0024916348 0.041940104 -0.01847595 0.04352285 -0.0031621307
0.025707671 0.0595531 0.025394252 0.03895136 0.015757142 -0.03340311 0.07679848 0.038249947
-0.015188124 -0.0055882744 -0.020483738 -0.04685921 0.0049497415 -0.021034546 -0.019954834 0.015507027
-0.02448327 0.0142623205 -0.0037935907 0.009113467 -0.0026189701 0.009226977 0.01585322 0.015949236
-0.016026769 0.03290713 -0.043148387 0.019080354 -0.031615395 0.030551786 0.023294212 -0.019920431
-0.008916215 -0.051150154 -0.045050167 0.0756654 -0.020906543 0.0072461725 -0.011520352 0.02241461
-0.052533682 -0.018445056 0.009941764 0.0042626327 0.031733505 -0.016291982 0.03631111 0.041559644
-0.0072518215 0.0061415453 -0.032178108 -0.058406252 -0.042998116 -0.0006088236 -0.062340252 -0.0042965473
-0.0313404 0.041895177 0.0043231496 0.1257739 -0.038427617 0.018996263 -0.0033391758 -0.0155652575
0.03915207 0.009159892 0.026159616 -0.008286365 0.018347155 0.0063985945 -0.04775978 0.004650082
0.00663688 0.00603707 -0.070992805 -0.07809083 0.06490482 0.089336045 -0.07389944 0.06362598
-0.03093829 0.057132494 -0.02062296 -0.010080438 -0.027049119 0.039846603 -0.05857256 0.010611351
-0.035044607 -0.0049908347 -0.022035101 -0.006734357 0.008471685 -0.036459815 -0.023814475 0.012354775
-0.07381913 0.06351995 -0.013900342 -0.07389656 0.109584585 -0.16336139 0.09936076 0.027529415
0.019101998 0.047636285 -0.06644199 0.027693635 -0.012028481 0.009570233 -0.068336666 0.04941162
0.09328079 -0.011708454 0.015851056 -0.0210153 0.04053168 0.001948781 -0.00057262345 -0.035988286
00000000: 7dfd 7e3c 9a0d 6ebd 7687 4bbd 5a22 1a3c
00000010: fa86 3fbd 02f7 dcbc 64b3 c0bc 3b7c 243e
00000020: adb7 2abc c56f 0bbc e326 073d f2b4 90bc
00000030: c00c b1bd 77e2 233d 8f3d 1a3d 182a cabb
00000040: 9e9a f93c 4f81 a73d e621 b1bd a404 31bd
00000050: 7f3d 17bc 7259 99bc 15f6 a03c b638 18bd
00000060: fb3b 973d 8e0b 293d 4d30 f3bc 7398 1f3c
00000070: 44bd 513d e73b 7a3d 8bda 4a3d 9633 b5bc
00000080: 5500 90bd d167 edbc d2d8 3a3d c307 49bd
00000090: 3961 2c3d 61e3 0cbe e1ae 2bbc 43ed f1bc
000000a0: 1dee e53c 9a12 a43d f334 bdbd 9127 b73d
000000b0: 10d0 e13b 8588 13bc bb02 073b 5201 e3bc
000000c0: 451e 0fbd 4387 86bc 93e3 21bc fcb9 ef3c
000000d0: 72e9 25bd f91a 4e3d 153c c3bc ef32 64bc
000000e0: 2557 36bd df9f 7c3d 015a 843c 77fd 9e3d
000000f0: 5d31 1b3d 48df 69bd abe4 0d3d ba0b c0bd
00000100: f9db 713c 7186 10bc 5f1f db3d 7f84 2ebc
00000110: f475 a8bc d41c febc 1147 55bd 08f9 423c
00000120: 46a1 c93a a247 a4bc d397 d43b fdd1 88bd
00000130: b949 df3b 0e26 b43d 399c bdbc a285 ccbc
00000140: fe0e 8dbb e859 3a3c aa4e a3bd 5a40 e53d
00000150: b57d 8dbd 86d4 9d3c e4c6 75bd db36 a2bd
00000160: 258b 0e3c 3859 473d 0aff dcbb 7b17 d83d
00000170: d982 f43b 5af1 cfbc 17b8 0abd 60f4 6639
00000180: ec37 90bd f2f7 413d 326f a93b aaaa 913d
00000190: d2eb c13d fe76 21bd a102 0dbd 08b4 493d
000001a0: a4db 94bd 5f00 0ebd b30f b2bc d455 093e
000001b0: 13fe e83d 8722 2e3d 7397 f73b b27a 05bc
000001c0: 95ab 77bd 402f 91bd 69dd 8d3c 566d 22bd
000001d0: a82d cb3c fc64 c43b 5453 49bd a3e7 713c
000001e0: 1c94 59bc a9c8 883d 456d 9bbd 9160 303d
000001f0: 99ea a2bc 79db ff3c 45a0 afbd 1b95 d6bc
00000200: 8e76 85bb 4b4d adbd 99f5 073d b24a 233b
00000210: 63c9 2b3d e05a 97bc 0445 323d c03b 4fbb
00000220: e598 d23c f4ed 733d 9b07 d03c 768b 1f3d
00000230: 1f15 813c b3d1 08bd 8548 9d3d faab 1c3d
00000240: 9cd7 78bc d81d b7bb 83cd a7bc 71ef 3fbd
00000250: 7131 a23b a450 acbc 5278 a3bc 2f11 7e3c
00000260: 2391 c8bc 82ac 693c e49d 78bb a750 153c
00000270: 07a3 2bbb bf2c 173c 9dde 813c f9a7 823c
00000280: 924a 83bc a0c9 063d 5dbc 30bd 674e 9c3c
00000290: 257f 01bd bd47 fa3c 81d3 be3c 2c30 a3bc
000002a0: 5115 12bc d382 51bd 8686 38bd 76f6 9a3d
000002b0: 3344 abbc 4d71 ed3b dcbf 3cbc d89e b73c
000002c0: 8f2d 57bd 161a 97bc c8e2 223c 8ead 8b3b
000002d0: fefa 013d c376 85bc f5ba 143d 723a 2a3d
000002e0: b0a0 edbb 043f c93b 31cd 03bd 653b 6fbd
000002f0: cb1e 30bd 7699 1fba 7e58 7fbd 0dca 8cbb
00000300: cb5e 00bd 479a 2b3d 35a9 8d3b e0ca 003e
00000310: 4766 1dbd 0d9e 9b3c 13d6 5abb 6c05 7fbc
00000320: ec5d 203d 5f13 163c b14c d63c 89c3 07bc
00000330: c64c 963c 4dab d13b c29f 43bd b75f 983b
00000340: 2f7a d93b 9dd2 c53b ad64 91bd 16ee 9fbd
00000350: d1ec 843d d1f5 b63d 9758 97bd 564e 823d
00000360: 4c72 fdbc c303 6a3d 7bf1 a8bc 6c28 25bc
00000370: 1d96 ddbc 3136 233d c8e9 6fbd 3bdb 2d3c
00000380: ef8a 0fbd 288a a3bb f582 b4bc e2ab dcbb
00000390: d3cc 0a3c e356 15bd 9316 c3bc af6b 4a3c
000003a0: 7c2e 97bd bf16 823d 43be 63bc 1457 97bd
000003b0: e26d e03d 3548 27be a77d cb3d 5e85 e13c
000003c0: cb7b 9c3c 441e 433d bd12 88bd c3dd e23c
000003d0: 1b13 45bc 77cc 1c3c 18f4 8bbd d763 4a3d
000003e0: 000a bf3d d1d4 3fbc 13da 813c 4728 acbc
000003f0: 8c04 263d 3d6e ff3a 1c1c 16ba 7468 13bd

first_part.0.bias f4 [64]
0.010087779 0.04304455 -0.010770674 0.006124483 -0.044483792 -0.048748776 -0.007861264 0.020403374
0.010482591 -0.007428578 -0.060549635 0.033045232 -0.051854692 -0.033191007 -0.012059171 -0.035469476
0.01929615 -0.019431029 -0.029422227 0.036334604 0.034575976 0.013907434 -0.02930355 -0.019955257
0.022206862 -0.025420897 0.0126368 0.0060072048 0.020675525 -0.040621255 0.013490179 -0.029776197
-0.03508261 -0.022499248 -0.009957071 0.039128546 0.02377189 0.1203513 0.003907462 0.0011407613
-0.012637459 -0.08849743 -0.010370046 0.03864379 0.06751864 -0.000825922 -0.053153105 -0.05906585
0.061058167 0.0014844046 0.042694904 -0.043658696 -0.014659773 -0.046004295 0.03469759 0.01371571
-0.013746039 -0.0013626138 0.027930133 -0.043795165 -0.04620405 -0.03881913 -0.029101796 -0.009966275
00000000: 3647 253c 7b4f 303d 7b77 30bc e3af c83b
00000010: a334 36bd ccac 47bd 88cc 00bc fa24 a73c
00000020: 2cbf 2b3c 6e6b f3bb e502 78bd 705a 073d
00000030: 9665 54bd 4bf3 07bd d493 45bc 7148 11bd
00000040: f612 9e3c d22d 9fbc e206 f1bc 98d3 143d
00000050: 8a9f 0d3d 02dc 633c 000e f0bc 3579 a3bc
00000060: 2aeb b53c 7c3f d0bc 950a 4f3c 16d8 c43b
00000070: b85f a93c 7962 26bd e905 5d3c 36ed f3bc
00000080: c8b2 0fbd 5850 b8bc fc22 23bc 4145 203d
00000090: 44bd c23c be7a f63d 2b0a 803b 9985 953a
000000a0: 580d 4fbc 243e b5bd 20e7 29bc f348 1e3d
000000b0: 3647 8a3d b082 58ba 12b7 59bd 08ef 71bd
000000c0: 2118 7a3d 5a90 c23a dae0 2e3d 76d3 32bd
000000d0: 8b2f 70bc 006f 3cbd 0f1f 0e3d dbb7 603c
000000e0: 1137 61bc bb99 b2ba bccd e43c 8f62 33bd
000000f0: 7540 3dbd cf00 1fbd e466 eebc 9649 23bc

first_part.2.weight f4 [32, 64, 3, 3]
0.15866102 -0.041751403 0.129455 -0.03552682 -0.1267608 0.06271024 -0.13297474 -0.08500837
-0.14250262 0.035740905 0.023409415 -0.030774176 -0.039022665 0.16892229 0.00091190275 -0.019560939
0.19618894 0.013912183 -0.0144542465 -0.19934528 -0.047634024 -0.050748438 -0.119369105 -0.047003392
-0.0672807 -0.014858088 -0.275384 0.120361045 -0.040044356 -0.0031606695 -0.005653548 0.047877237
0.19204237 -0.0002643701 0.07398576 0.114723995 0.06698955 0.028531004 -0.01060779 -0.07401425
-0.014225138 -0.016983708 -0.21083935 0.008194821 -0.117349654 0.011781872 0.026456533 -0.12303391
0.054778304 -0.11790569 0.060899433 0.1253836 0.08994833 0.0006408231 -0.09499657 0.077866495
-0.07761603 -0.034455363 -0.0735455 -0.03679179 -0.004318164 -0.053120382 0.08695146 0.0030827022
0.055277202 -0.06607479 -0.1021653 -0.12191133 -0.015616657 -0.106835 -0.10962312 0.020353809
-0.09498502 -0.03833142 0.04394118 0.107718766 0.11835016 -0.071157604 0.008149427 -0.036753166
0.031296883 0.037292317 0.11020682 -0.022276727 -0.02875176 0.02373304 0.10573707 -0.047790524
0.20368977 -0.12571274 -0.10861263 -0.054263603 -0.029567577 -0.011531144 0.03442136 0.07772827
0.09276358 -0.15052053 -0.0709675 -0.11272058 0.07107386 0.10735016 0.03791031 0.0762819
0.07785781 -0.005303196 -0.13226692 0.051678546 -0.16252936 -0.015395757 -0.067826554 -0.0169814
-0.034204178 -0.08650101 0.069164954 -0.11262297 0.0043916563 -0.004142427 -0.009607722 0.14259343
-0.045488257 -0.094802424 0.014922668 -0.013115841 -0.009157678 0.028946614 -0.09362821 0.015476239
0.02951031 0.10685734 -0.070248626 0.06629202 0.029969541 0.04876938 0.069866955 -0.070881754
0.059150238 0.03815194 0.13184406 -0.022267105 0.028155606 0.058691908 -0.027183138 -0.046209324
-0.029500047 0.09505622 0.007122715 0.07793339 -0.017434131 -0.037474114 0.17907836 -0.02000466
0.0549567 0.066678956 -0.0816211 -0.027026119 -0.1574664 0.03901766 0.00778776 -0.009186378
-0.0862887 0.042177986 -0.008891171 0.170007 0.11031662 0.051790074 -0.22929421 -0.02293874
-0.044387 0.010882676 0.030204449 0.03553354 -0.07685405 -0.09812955 -0.0043071923 0.034480087
0.07799127 0.19544412 0.17325029 0.15755107 0.008051255 -0.034200456 0.09681399 0.039341126
0.10267749 0.058401935 -0.11600316 0.02873182 -0.03961896 0.12563026 -0.1276856 -0.025174532
-0.004332498 0.07440868 0.018620877 -0.01572922 0.024677511 -0.06695183 0.0534152 -0.026248535
0.037291393 -0.1446683 0.052077074 0.10216031 -0.07193756 0.11358272 0.221864 -0.049102705
-0.115143 -0.12424655 -0.0499527 -0.1968113 -0.052350614 0.09696795 -0.043636445 0.025970696
-0.09374496 0.04984066 0.068054125 -0.06501232 0.0907259 0.06865678 -0.011301736 0.04935927
-0.025268905 -0.011511105 -0.043212015 0.10553432 -0.13568938 0.040705327 -0.078372784 0.123528406
-0.17568895 0.12731078 0.023879502 -0.012445645 -0.146993 0.077062555 0.110410914 0.09059062
0.18077473 0.11764093 0.050420184 0.037833866 0.048083127 0.05405295 -0.039090086 0.11623408
-0.08708124 0.10122939 -0.010103857 -0.021445012 0.08978055 0.17671737 -0.08051865 -0.1524354
00000000: 0978 223e 8503 2bbd da8f 043e 9284 11bd
00000010: 95cd 01be 3a6e 803d 882a 08be de18 aebd
00000020: 35ec 11be 0e65 123d 1ac5 bf3c 201a fcbc
00000030: 3bd6 1fbd f7f9 2c3e c20c 6f3a 433e a0bc
00000040: c1e5 483e edef 633c 81d1 6cbc 2b21 4cbe
00000050: e51b 43bd 98dd 4fbd ca77 f4bd a186 40bd
00000060: 77ca 89bd 576f 73bc 22ff 8cbe da7f f63d
00000070: 8d05 24bd 3c23 4fbb 6641 b9bb ec1a 443d
00000080: c1a6 443e 279b 8ab9 d985 973d 6af4 ea3d
00000090: d131 893d dab9 e93c 4ccc 2dbc c894 97bd
000000a0: 8e10 69bc 6b21 8bbc 45e6 57be 9243 063c
000000b0: 0455 f0bd c108 413c 5fbb d83c 34f9 fbbd
000000c0: 375f 603d 8a78 f1bd af71 793d 8f64 003e
000000d0: d436 b83d e9fc 273a 908d c2bd 7878 9f3d
000000e0: 27f5 9ebd 1121 0dbd 069f 96bd fdb2 16bd
000000f0: 637f 8dbb c294 59bd 9b13 b23d 2907 4a3b
00000100: 596a 623d 3852 87bd 0a3c d1bd a6ac f9bd
00000110: 02dd 7fbc 4fcc dabd 1682 e0bd 08bd a63c
00000120: 8287 c2bd 6801 1dbd abfb 333d a89b dc3d
00000130: 9261 f23d 14bb 91bd 2d85 053c 7d8a 16bd
00000140: 2931 003d d4bf 183d 1db4 e13d af7d b6bc
00000150: d088 ebbc cb6b c23c ad8c d83d ffbf 43bd
00000160: 0d94 503e d7ba 00be 4c70 debd 8343 5ebd
00000170: b437 f2bc 20ed 3cbc 69fd 0c3d 0030 9f3d
00000180: d5fa bd3d 0e22 1abe 6957 91bd 0cda e6bd
00000190: 2c8f 913d 67da db3d d747 1b3d af39 9c3d
000001a0: ea73 9f3d 6fc6 adbb fb70 07be e2ac 533d
000001b0: 196e 26be 7c3e 7cbc a6e8 8abd 941c 8bbc
000001c0: ae19 0cbd 7127 b1bd 5ba6 8d3d dfa6 e6bd
000001d0: e2e7 8f3b 32bd 87bb b569 1dbc 0304 123e
000001e0: e551 3abd c627 c2bd 357e 743c d3e3 56bc
000001f0: 160a 16bc 7321 ed3c 26c0 bfbd 0d90 7d3c
00000200: 9bbf f13c 05d8 da3d 83de 8fbd 1cc4 873d
00000210: af82 f53c 67c2 473d 6816 8f3d 742a 91bd
00000220: 8547 723d 3545 1c3d 2102 073e 8169 b6bc
00000230: 96a6 e63c ed66 703d 2caf debc fd45 3dbd
00000240: 15aa f1bc d6ac c23d aa65 e93b 8b9b 9f3d
00000250: 06d2 8ebc 757e 19bd 5160 373e d0e0 a3bc
00000260: 471a 613d fa8e 883d f728 a7bd e165 ddbc
00000270: df3e 21be fbd0 1f3d 7730 ff3b 7682 16bc
00000280: 21b8 b0bd d3c2 2c3d 46ac 11bc 5116 2e3e
00000290: aeed e13d d421 543d 1acc 6abe 06ea bbbc
000002a0: 25cf 35bd 404d 323c 526f f73c 9e8b 113d
000002b0: a865 9dbd 25f8 c8bd 5923 8dbb fe3a 0d3d
000002c0: e3b9 9f3d 8122 483e 8668 313e 1155 213e
000002d0: 69e9 033c c715 0cbd 6a46 c63d 2924 213d
000002e0: 9348 d23d de36 6f3d 1193 edbd fe5e eb3c
000002f0: 7e47 22bd 38a5 003e 04c0 02be d23a cebc
00000300: a1f7 8dbb 9463 983d cf8a 983c 91da 80bc
00000310: 7e28 ca3c 0b1e 89bd e6c9 5a3d 2b07 d7bc
00000320: dcbe 183d ed23 14be c54e 553d 6d39 d13d
00000330: 0054 93bd 0f9e e83d 5130 633e eb1f 49bd
00000340: 18d0 ebbd fa74 febd 349b 4cbd e788 49be
00000350: 996d 56bd 2297 c63d 21bc 32bd 7fc0 d43c
00000360: 5cfd bfbd b825 4c3d f65f 8b3d 2e25 85bd
00000370: 80ce b93d ed9b 8c3d eb2a 39bc f22c 4a3d
00000380: bc00 cfbc 1399 3cbc 15ff 30bd 6122 d83d
00000390: 28f2 0abe a1ba 263d e981 a0bd 76fc fc3d
000003a0: cee7 33be c25d 023e f29e c33c d2e8 4bbc
000003b0: 5585 16be f9d2 9d3d 1e1f e23d 9387 b93d
000003c0: 031d 393e baed f03d 6585 4e3d aff7 1a3d
000003d0: d0f2 443d a066 5d3d ed1c 20bd 220c ee3d
000003e0: a657 b2bd 5b51 cf3d a68a 25bc 73ad afbc
000003f0: ddde b73d 66f5 343e f6e6 a4bd 0718 1cbe

first_part.2.bias f4 [32]
-0.0069741337 -0.03833199 -0.033876084 -0.01573632 0.034531068 0.018768733 0.027491359 -0.035475057
-0.05720262 -0.01068563 0.026900658 0.00197156 -0.047024556 0.02082308 0.011227319 -0.031171365
-0.018844439 0.035665937 0.0345055 0.020579105 -0.020854814 -0.033163343 0.03034936 -0.05534373
-0.035347488 -0.032107685 0.029565861 0.0024454715 0.026206784 0.04190039 0.0023876957 -0.02482668
00000000: 4687 e4bb 0102 1dbd a6c1 0abd 74e9 80bc
00000010: 7370 0d3d e3c0 993c 8f35 e13c 4b4e 11bd
00000020: 4b4d 6abd c812 2fbc c55e dc3c 4a35 013b
00000030: d29c 40bd 2a95 aa3c caf2 373c 175b ffbc
00000040: a75f 9abc 7216 123d a455 0d3d 8395 a83c
00000050: b7d7 aabc 49d6 07bd 399f f83c 1bb0 62bd
00000060: 87c8 10bd 5983 03bd 1b34 f23c 3444 203b
00000070: 9caf d63c be9f 2b3d e37a 1c3b 5261 cbbc

last_part.0.weight f4 [9, 32, 3, 3]
0.0142462235 -0.017406905 0.038216203 -0.021967221 -0.0798282 0.0053619887 -0.019973697 -0.032890946
0.03259617 0.065190196 -0.01610816 0.015678111 -0.06630471 -0.05872705 0.009524968 -0.00046044795
0.100101344 -0.022739282 -0.013438672 -0.029419294 0.010282107 -0.013931557 -0.028898476 0.0030012939
-0.0354531 0.0069854544 0.0031120225 -0.052578717 -0.023622738 0.0056518833 0.06589503 0.035306152
0.0009561175 -0.010323869 -0.03476319 0.0044991598 0.03342128 0.010010032 -0.009218612 -0.00602583
0.057013057 0.019948909 0.018715216 -0.0017410337 -0.004177995 0.008503349 0.011213224 -0.013956058
0.001835039 0.044115175 0.023766397 0.017276118 -0.0014278726 0.0043174257 0.0028135325 0.0502083
-0.02749152 -0.002320364 0.032974947 0.009062524 0.03707268 0.030623313 0.012963503 -0.0018417458
0.006774332 0.009065028 -0.019763956 -0.046565145 -0.042979077 -0.0026458337 -0.020969503 -0.010400819
0.022057673 -0.0060742386 -0.011269306 0.05902892 -0.16540714 0.10165724 -0.017291417 -0.053252406
0.010805509 0.044153098 -0.09907269 0.03282138 -0.012250684 -0.027681038 0.094525695 -0.00630206
-0.021209683 -0.008598336 0.050446924 0.010568802 0.024367597 0.0071983193 0.033684567 0.05269438
-0.012996561 0.023114473 0.019927083 -0.02465008 0.0017923912 0.0016897494 -0.021041885 -0.04044234
0.0398092 -0.01737548 0.0462578 0.03222153 -0.029747024 -0.014727034 -0.011398847 -0.0023619456
-0.058969665 -0.023493169 0.00833785 -0.012575022 0.0033163533 -0.0016327235 0.014898476 -0.008829369
0.023599524 0.09700755 0.0032573617 -0.015433202 0.013427994 0.007637271 0.0076121395 0.08710517
0.04327682 -0.014562922 0.16587959 -0.0434641 -0.043753028 -0.062073395 -0.06519197 -0.020867711
-0.028737633 0.0021606581 -0.021529602 -0.038761836 -0.038248602 0.0054263202 -0.009624185 -0.0010856922
0.02215498 -0.032431465 -0.00013911018 -0.084135965 0.020005705 -0.012372674 -0.031928297 -0.02714756
0.021640062 0.02149253 0.018661013 -0.005499905 0.03424798 0.050186276 -0.0018576696 0.012173772
0.03060153 0.0060071154 0.017225523 0.023092866 0.016113333 -0.020489842 0.038213372 0.021813668
-0.0012211888 0.024154773 -0.005755097 -0.006935255 0.004444277 -0.024033485 0.0022565585 0.032071006
-0.0008545374 0.004938206 0.018014489 0.028146852 0.014995979 -0.015075907 -0.0031326693 0.03788944
0.016131923 -0.07278407 0.047635905 0.021134408 -0.0047087986 -0.05997138 -0.0082344 -0.030175878
-0.02595696 -0.043353643 -0.05048979 -0.031064037 -0.049474046 0.010285869 0.022992495 -0.013870675
-0.003401022 0.02650932 0.027969575 0.0007511105 -0.0045044324 -0.0074712657 -0.0038128365 -0.025885755
0.0963728 -0.032316588 -0.0045004697 0.14515813 -0.0065738168 0.015982559 0.043618176 -0.0047296584
-0.016854703 -0.014350196 0.022175543 -0.013427657 -0.06384391 -0.027324494 -0.006900035 -0.024892097
-0.0057737646 0.020373765 0.012849096 0.026563875 -0.019574229 -0.07397987 -0.01773758 -0.006933898
-0.00028959734 0.008804945 0.008053144 0.031808272 0.0050312537 0.018439664 0.053208392 -0.013706696
0.0019871832 -0.03000098 -0.0073729446 -0.11148908 -0.14750229 0.061391726 -0.05182875 -0.14194766
0.045358144 0.049403768 0.11123445 0.02320839 0.0048033893 0.034618456 -0.018370856 -0.0016997069
00000000: fe68 693c ed98 8ebc 9888 1c3d 9af4 b3bc
00000010: f87c a3bd 9fb3 af3b e19f a3bc a8b8 06bd
00000020: 9083 053d 7082 853d 43f5 83bc 626f 803c
00000030: c4ca 87bd c68b 70bd 9d0e 1c3c 4768 f1b9
00000040: ef01 cd3d bb47 babc e02d 5cbc bb00 f1bc
00000050: 4876 283c 2f41 64bc 7fbc ecbc 5bb1 443b
00000060: 4537 11bd 3de6 e43b 13f3 4b3b c85c 57bd
00000070: 7984 c1bc 6f33 b93b f9f3 863d 2f9d 103d
00000080: f6a3 7a3a 7225 29bc d963 0ebd b06d 933b
00000090: c1e4 083d 1e01 243c a909 17bc 5374 c5bb
000000a0: 8686 693d e56b a33c a750 993c 6633 e4ba
000000b0: 90e7 88bb a151 0b3c acb7 373c f3a7 64bc
000000c0: b185 f03a 1db2 343d bfb1 c23c a586 8d3c
000000d0: 7427 bbba 3179 8d3b 3e63 383b 38a7 4d3d
000000e0: e535 e1bc 3f11 18bb bd10 073d fb7a 143c
000000f0: 86d9 173d bedd fa3c df64 543c bc66 f1ba
00000100: 37fb dd3b 7c85 143c 05e8 a1bc 18bb 3ebd
00000110: d40a 30bd b965 2dbb 3cc8 abbc 3268 2abc
00000120: 4bb2 b43c 680a c7bb e5a2 38bc 4fc8 713d
00000130: 7d60 29be ac31 d03d bba6 8dbc 321f 5abd
00000140: 9709 313c e1d9 343d 9fe6 cabd b66f 063d
00000150: 18b7 48bc 58c3 e2bc b096 c13d 8381 cebb
00000160: eebf adbc 09e0 0cbc 6fa1 4e3d c528 2d3c
00000170: 8e9e c73c e1df eb3b d4f8 093d 10d6 573d
00000180: 87ef 54bc 905a bd3c 1f3e a33c f7ee c9bc
00000190: abee ea3a 957a dd3a 0860 acbc dea6 25bd
000001a0: f90e 233d 0657 8ebc d278 3d3d b9fa 033d
000001b0: 08b0 f3bc a849 71bc 3bc2 3abc dfca 1abb
000001c0: 2d8a 71bd bf74 c0bc 7a9b 083c 7707 4ebc
000001d0: 2d57 593b 1c01 d6ba bd18 743c 0fa9 10bc
000001e0: ca53 c13c e5ab c63d 7679 553b 8adb 7cbc
000001f0: 1701 5c3c 1342 fa3b 416f f93b 3264 b23d
00000200: 0943 313d 5299 6ebc 57dc 293e 6a07 32bd
00000210: 6036 33bd ac40 7ebd 5e83 85bd c3f2 aabc
00000220: 2f6b ebbc d499 0d3b d95e b0bc bbc4 1ebd
00000230: 91aa 1cbd 46cf b13b c2ae 1dbc c94d 8eba
00000240: 5c7e b53c dbd6 04bd 1bde 11b9 7a4f acbd
00000250: 01e3 a33c c2b6 4abc 3fc7 02bd 8f64 debc
00000260: 8046 b13c 1a11 b03c fbde 983c 8c38 b4bb
00000270: 9c47 0c3d 2090 4d3d 0c7d f3ba 8074 473c
00000280: 0fb0 fa3c 56d7 c43b 8a1c 8d3c 402d bd3c
00000290: 1c00 843c 50da a7bc a085 1c3d 94b2 b23c
000002a0: 4c10 a0ba 3be0 c53c 4195 bcbb 2341 e3bb
000002b0: 4ca1 913b dfe1 c4bc c5e2 133b e35c 033d
000002c0: 0903 60ba add0 a13b 1f93 933c 3a94 e63c
000002d0: b2b1 753c f000 77bc 784d 4dbb f531 1b3d
000002e0: 1827 843c d10f 95bd de1d 433d 1122 ad3c
000002f0: 444c 9abb 8da4 75bd 94e9 06bc 6733 f7bc
00000300: b1a3 d4bc 9793 31bd 62ce 4ebd 027a febc
00000310: 4ca5 4abd 1086 283c c25a bc3c d441 63bc
00000320: aee3 5ebb 132a d93c 7320 e53c 2ce6 443a
00000330: eb99 93bb 85d1 f4bb c8e0 79bb 5d0e d4bc
00000340: 1a5f c53d 665e 04bd ad78 93bb 55a4 143e
00000350: 2c69 d7bb dbed 823c f9a8 323d 40fb 9abb
00000360: e012 8abc 161d 6bbc 7ca9 b53c adff 5bbc
00000370: 99c0 82bd 9ed7 dfbc b019 e2bb 83ea cbbc
00000380: d931 bdbb e2e6 a63c 0485 523c 7c9c d93c
00000390: 225a a0bc c282 97bd 674e 91bc c135 e3bb
000003a0: 19d5 97b9 9e42 103c 56f1 033c 6449 023d
000003b0: 37dd a43b c70e 973c 0bf1 593d 0d92 60bc
000003c0: 673b 023b 9dc4 f5bc be98 f1bb 6354 e4bd
000003d0: d70a 17be e475 7b3d 624a 54bd ba5a 11be
000003e0: 76c9 393d 9b5b 4a3d e3ce e33d 861f be3c
000003f0: c065 9d3b 15cc 0d3d 7a7e 96bc b3c8 deba

last_part.0.bias f4 [9]
0.09237099 0.10466211 0.08337183 0.09268009 0.11003188 0.08628418 0.08826268 0.10261816
0.08683678
00000000: 002d bd3d 1759 d63d dabe aa3d 0fcf bd3d
00000010: 6558 e13d c3b5 b03d 10c3 b43d 7829 d23d
00000020: 7bd7 b13d
